model.tflite (tflite, 516812 bytes, 14 tensors)

arith.constant f4 [16]
0.13693772 -0.11675059 -0.13509764 -0.06509296 -0.022912843 -0.052705903 -0.11738015 0.15742533
-0.08861397 -0.14430721 -0.037335977 0.082878284 0.025881322 -0.0017713206 -0.028458616 0.04840328
00000000: 6739 0c3e ef1a efbd 0957 0abe 754f 85bd
00000010: b7b3 bbbc 25e2 57bd 0165 f0bd 1b34 213e
00000020: 3e7b b5bd 45c5 13be 9ced 18bd 17bc a93d
00000030: 1105 d43c a82b e8ba 0b22 e9bc 8542 463d

arith.constant1 f4 [32]
-0.064192824 0.112141445 -0.079864256 -0.032728378 -0.0053163744 -0.0079318695 -0.008769452 -0.06441894
-0.06346609 -0.06647671 -0.028729048 -0.02466032 0.008117821 0.022475462 -0.08478266 0.074237846
-0.031379968 0.049965534 -0.06846045 0.061610784 -0.017119652 -0.001224414 -0.04397915 0.046885267
-0.06558754 -0.018147008 -0.042797517 -0.08042833 -0.02740372 -0.006256062 -0.013780951 -0.045661658
00000000: 8777 83bd 6aaa e53d df8f a3bd 310e 06bd
00000010: fb34 aebb acf4 01bc bfad 0fbc 14ee 83bd
00000020: 82fa 81bd f124 88bd 2e59 ebbc 7004 cabc
00000030: 9c00 053c 761e b83c 88a2 adbd 030a 983d
00000040: 4888 00bd a9a8 4c3d fe34 8cbd 975b 7c3d
00000050: 833e 8cbc 847c a0ba 7b23 34bd c40a 403d
00000060: c352 86bd 09a9 94bc 734c 2fbd 9cb7 a4bd
00000070: c47d e0bc a7ff ccbb 7fc9 61bc b807 3bbd

arith.constant2 f4 [64]
-0.010498333 -0.1104431 -0.013464938 -0.017022718 -0.09415146 0.034453075 -0.08317406 -0.01058181
-0.03858728 -0.03990901 -0.07024609 -0.050735354 -0.047621604 -0.057634637 -0.012459264 0.024573795
-0.007948632 -0.01187103 -0.024923189 -0.070966735 -0.016318666 -0.03994362 -0.010842113 -0.015503338
-0.06728604 -0.024152743 0.017888619 -0.013672693 -0.06174627 -0.06662054 -0.049109668 0.007318043
-0.033557005 -0.035428572 -0.041453175 0.06355899 0.019811325 0.082019076 -0.035726946 -0.010811599
-0.022309614 -0.0047133323 0.044881716 -0.004617021 -0.052161913 -0.018229706 -0.0056351856 -0.1020663
-0.007286889 0.098256424 0.005850522 -0.07497995 -0.03810172 0.0023166814 -0.03237726 -0.014146667
-0.008234812 -0.031062184 -0.013141407 -0.019894816 0.0045955926 -0.013286688 -0.00244447 -0.021608252
00000000: 3301 2cbc fe2f e2bd 0b9c 5cbc 3a73 8bbc
00000010: 7bd2 c0bd ab1e 0d3d 2957 aabd 545f 2dbc
00000020: b20d 1ebd a177 23bd 2fdd 8fbd e0cf 4fbd
00000030: df0e 43bd 4c12 6cbd f121 4cbc fc4e c93c
00000040: fb3a 02bc b57e 42bc b72b ccbc 0257 91bd
00000050: b9ae 85bc ec9b 23bd 1ea3 31bc b601 7ebc
00000060: 43cd 89bd f9db c5bc 278b 923c 6e03 60bc
00000070: a8e9 7cbd 5a70 88bd 3827 49bd 32cc ef3b
00000080: 1273 09bd 8d1d 11bd ceca 29bd 372b 823d
00000090: 5c4b a23c 9ef9 a73d 6b56 12bd 2223 31bc
000000a0: a7c2 b6bc 4c72 9abb e4d5 373d 614a 97bb
000000b0: bba7 55bd 7756 95bc 5da7 b8bb 2308 d1bd
000000c0: dbc6 eebb aa3a c93d bcb5 bf3b 178f 99bd
000000d0: 8d10 1cbd 77d3 173b 059e 04bd 6cc7 67bc
000000e0: 4eeb 06bc 1f76 febc 0e4f 57bc 74fa a2bc
000000f0: a096 963b 69b0 59bc 6733 20bb ca03 b1bc

arith.constant3 f4 [16, 3, 3, 32]
-0.1790479 0.1365598 -0.10572105 -0.037614625 0.12671734 -0.029525304 -0.015558674 -0.17567113
-0.07218917 -0.13636544 0.015742661 -0.01940567 0.15545808 0.0385487 -0.25064686 0.107812785
0.05318926 0.16276835 -0.22131167 0.08300511 -0.14391844 0.08637568 0.1521788 -0.08333062
-0.23027621 -0.08799095 -0.1287973 0.070065424 -0.014099318 -0.11391008 -0.20300604 -0.04552548
-0.08824698 0.047368582 0.09761952 -0.06356809 -0.11317445 0.014439049 0.013529546 -0.23928255
-0.12550838 -0.21418847 -0.15750663 -0.01712751 -0.025867978 -0.12505338 0.10088971 0.15963207
-0.2968157 0.018902592 -0.21701846 -0.22216316 -0.088862 -0.008358048 0.06045166 0.011069279
-0.029221378 0.02981296 -0.122985095 -0.015090776 0.027143419 0.050355483 -0.045592036 -0.026055476
-0.13590571 -0.17664425 -0.24693607 -0.005635567 -0.049910273 0.08627638 -0.29149863 -0.181339
-0.2621302 -0.08488718 0.020763034 0.08057258 -0.026735181 0.053130347 -0.000211957 0.095663175
0.040778935 -0.08373803 -0.22349449 -0.41630295 0.046273887 0.00561352 -0.022762818 0.2395106
-0.28706828 -0.10521174 -0.09106919 -0.15895092 -0.013222142 -0.06297037 -0.30837908 -0.0140719935
-0.15277 0.05500976 -0.11089017 -0.08606227 -0.090203986 -0.046574954 -0.16026716 -0.25124058
-0.049599048 0.044841334 0.0135637 -0.070871636 -0.08982044 0.093993165 -0.17577814 -0.1987722
-0.3863372 0.053154908 -0.22838853 -0.27199775 0.1711827 -0.03169529 -0.0962488 -0.12461511
-0.2116762 -0.076977186 0.049794164 -0.005982916 0.020207701 0.050736528 -0.18119344 -0.0038824752
0.13839296 0.18652481 0.06948897 -0.08590093 0.18331489 -0.107594505 -0.17515625 -0.1791973
-0.19601284 -0.066194914 -0.0015086356 0.12138618 -0.1344973 0.0586295 0.04458264 0.0967919
-0.16748182 -0.05676823 -0.1291166 -0.08643625 -0.10221309 0.18351816 -0.06696067 0.15404524
-0.21752205 -0.016430324 -0.22080958 0.07631395 -0.10905835 0.11197544 -0.29117447 -0.08925161
-0.13190703 0.08318711 0.07708697 -0.047144286 -0.12480747 -0.107828535 -0.08288518 -0.30938026
-0.22356357 -0.055452857 0.031283412 0.05674795 -0.09108232 -0.07717644 -0.16759111 0.03860518
-0.0209073 0.12028527 -0.43469623 0.00764648 0.038905032 -0.15344326 -0.03758832 0.1477132
-0.2763765 0.08194195 -0.1764763 0.10793829 0.09787198 0.0244916 -0.13742991 -0.06769938
0.139665 0.07374903 0.027630579 0.10182785 0.13824302 -0.012941296 0.010678127 -0.1153877
0.21860442 0.18531461 -0.030657474 -0.02258037 0.0073099406 0.09557697 -0.121586 -0.08431263
-0.00095483917 0.14929953 -0.0500923 0.0989934 -0.12447582 0.17865372 0.024631197 0.27962303
-0.18793564 0.03697039 -0.058026962 -0.06515667 -0.010950453 -0.058477722 0.07157144 0.024079813
0.1716441 -0.17537518 0.15792938 0.08846224 0.10295403 -0.0145340655 -0.061583854 0.014106564
-0.13044992 0.2074997 0.054389775 0.036254913 0.05189794 0.13813525 -0.047677893 0.13997722
0.026978077 0.05973647 -0.0013894483 0.04223745 0.08254656 -0.027185336 -0.09551438 0.17602171
0.08465641 -0.12068463 0.07488102 -0.05572748 -0.11520324 0.12103975 -0.11492748 -0.03290185
00000000: 5558 37be 55d6 0b3e 4784 d8bd cb11 1abd
00000010: 31c2 013e 0ddf f1bc cfe9 7ebc 22e3 33be
00000020: ead7 93bd 62a3 0bbe c1f6 803c a4f8 9ebc
00000030: 6730 1f3e 3ee5 1d3d c954 80be f3cc dc3d
00000040: fbdc 593d bfac 263e 879f 62be 95fe a93d
00000050: 5b5f 13be bce5 b03d c2d4 1b3e 3ea9 aabd
00000060: 87cd 6bbe 9934 b4bd 70e3 03be 767e 8f3d
00000070: d300 67bc b049 e9bd d1e0 4fbe ed78 3abd
00000080: d5ba b4bd 8f05 423d beec c73d fd2f 82bd
00000090: 02c8 e7bd c391 6c3c 07ab 5d3c 7c06 75be
000000a0: 4585 00be 3954 5bbe 6b49 21be fe4e 8cbc
000000b0: 15e9 d3bc fe0d 00be 449f ce3d 9776 233e
000000c0: 3af8 97be 9cd9 9a3c 163a 5ebe bd7e 63be
000000d0: 48fd b5bd 32f0 08bc 299c 773d ec5b 353c
000000e0: ac61 efbc 4f3a f43c 9cdf fbbd 4d3f 77bc
000000f0: e05b de3c 8d41 4e3d b7be 3abd 4b72 d5bc
00000100: de2a 0bbe 3be2 34be cfdc 7cbe 90aa b8bb
00000110: b76e 4cbd acb1 b03d 4f3f 95be eeb0 39be
00000120: ee35 86be 54d9 adbd 3d17 aa3c 3d03 a53d
00000130: bd03 dbbc 359f 593d c640 5eb9 0eeb c33d
00000140: d007 273d d87e abbd bddb 64be a925 d5be
00000150: b089 3d3d 9ef1 b73b 1779 babc 4442 753e
00000160: 9dfa 92be 4179 d7bd 7c82 babd 08c4 22be
00000170: afa1 58bc 9cf6 80bd dde3 9dbe 388e 66bc
00000180: bd6f 1cbe ea51 613d 631a e3bd 6a41 b0bd
00000190: debc b8bd 61c5 3ebd 131d 24be 9ba2 80be
000001a0: 5f28 4bbd 8cab 373d 483a 5e3c 2625 91bd
000001b0: c7f3 b7bd 7d7f c03d 2fff 33be f18a 4bbe
000001c0: fdcd c5be f6b8 593d afde 69be 4a43 8bbe
000001d0: 854a 2f3e ecd2 01bd 171e c5bd 3536 ffbd
000001e0: a5c1 58be 37a6 9dbd f7f4 4b3d 560c c4bb
000001f0: 9f8a a53c 1bd1 4f3d c68a 39be 2071 7ebb
00000200: e2b6 0d3e 5c00 3f3e 3c50 8e3d d4ec afbd
00000210: e6b6 3b3e 825a dcbd 295c 33be 7f7f 37be
00000220: 97b7 48be 3391 87bd 69bd c5ba 5199 f83d
00000230: a9b9 09be 7d25 703d 499c 363d d53a c63d
00000240: 5b80 2bbe ce85 68bd 2437 04be 7d05 b1bd
00000250: 1955 d1bd 2fec 3b3e ad22 89bd 09be 1d3e
00000260: 1abe 5ebe e398 86bc e81b 62be 7d4a 9c3d
00000270: fc59 dfbd 6153 e53d d214 95be 8cc9 b6bd
00000280: a312 07be 015e aa3d c6df 9d3d 5e1a 41bd
00000290: 0f9b ffbd 35d5 dcbd b5bf a9bd 1767 9ebe
000002a0: d9ed 64be 8922 63bd 0923 003d 8a70 683d
000002b0: 5e89 babd ae0e 9ebd 019d 2bbe 7720 1e3d
000002c0: c945 abbc 2058 f63d 8190 debe 538f fa3b
000002d0: e25a 1f3d 3b20 1dbe 36f6 19bd 2142 173e
000002e0: 3881 8dbe 2ed1 a73d 34b6 34be c00e dd3d
000002f0: 1b71 c83d 9ca2 c83c 6dba 0cbe f9a5 8abd
00000300: 5704 0f3e bb09 973d 8659 e23c 1f8b d03d
00000310: 948f 0d3e bb07 54bc 50f3 2e3c 6350 ecbd
00000320: d6d9 5f3e 1dc3 3d3e 6225 fbbc 78fa b8bc
00000330: 3a88 ef3b dcbd c33d 1502 f9bd 1aac acbd
00000340: 2c4e 7aba fae1 183e 952d 4dbd 0dbd ca3d
00000350: 2eed febd 00f1 363e 5dc7 c93c c02a 8f3e
00000360: 3372 40be 436e 173d aead 6dbd dc70 85bd
00000370: 8769 33bc 5686 6fbd 0c94 923d 0743 c53c
00000380: 79c3 2f3e 8d95 33be 3db8 213e b12b b53d
00000390: 90d9 d23d 4a20 6ebc 5a3f 7cbd 381f 673c
000003a0: aa94 05be cd7a 543e d0c7 5e3d 0880 143d
000003b0: ef92 543d 5473 0d3e e549 43bd 3056 0f3e
000003c0: 2101 dd3c 3bae 743d 261e b6ba 2d01 2d3d
000003d0: 2c0e a93d c8b3 debc 0b9d c3bd 093f 343e
000003e0: 5760 ad3d 8129 f7bd 385b 993d 8042 64bd
000003f0: adef ebbd b0e3 f73d 195f ebbd 17c4 06bd

arith.constant4 f4 [32, 3, 3, 64]
0.034465745 0.08228931 -0.0037126169 -0.030982118 0.09534872 0.061213292 -0.047922473 -0.06758541
0.009694388 -0.060115624 -0.15669361 0.1666634 -0.010379174 -0.037749372 0.0020457816 0.032981962
0.026493154 -0.022601295 0.05554612 0.071872145 -0.0014856291 -0.053416386 -0.06907893 0.049689807
-0.0014318728 0.0036994056 0.04219106 0.055853672 -0.18258792 0.035055164 -0.08327717 -0.14486755
-0.026085151 0.08278884 -0.09966692 -0.15442523 0.064293034 -0.07894136 -0.027216554 -0.017629901
0.014835302 0.0064649615 -0.049822535 -0.03663872 0.052440047 0.003510708 -0.046572547 -0.008733234
-0.075729154 -0.03211522 -0.09404945 -0.0046653557 -0.067908525 0.0071462938 -0.030554809 0.041569043
-0.019530013 0.008822028 -0.002035059 0.06139479 -0.13905482 -0.009610233 -0.049602155 0.023604829
-0.044010367 0.1753053 -0.0022080473 -0.03666669 0.096101485 -0.04690012 -0.044477336 -0.06286322
-0.01135238 -0.0311067 -0.10553429 -0.13203563 -0.07958526 -0.027224572 -0.06299587 0.000999032
0.06531419 -0.061307777 0.018866288 0.089459084 -0.07187301 -0.023448741 -0.084550455 -0.0072547435
0.10430836 0.08341733 -0.018900294 0.004020943 -0.116140634 -0.050984446 0.004091338 -0.038771536
-0.017612109 0.061096646 -0.14091724 -0.21487288 0.20491216 0.021472767 -0.0017004708 0.016709428
-0.0672456 -0.060267847 0.036879547 0.044425704 0.13232045 0.06663645 -0.0638738 0.035225514
-0.0011184562 -0.1580633 -0.113931976 0.19433743 -0.057609282 -0.09337595 0.040134184 -0.034578472
-0.025064865 0.030432438 0.061561827 0.028662374 -0.04148811 0.07330757 -0.051871814 -0.099970765
-0.062438436 -0.0056239557 -0.08355819 -0.062418006 -0.11136413 -0.028867759 -0.17820433 -0.07028757
-0.21137221 -0.06667357 -0.17694665 -0.14299525 -0.05386848 -0.012832078 -0.021534195 0.027941126
0.03543884 -0.014459854 -0.029738719 -0.07566113 -0.020356622 0.03270454 -0.07318256 -0.047702797
-0.030049214 0.081364274 -0.061838873 -0.007824673 -0.24366017 -0.059667487 0.121835425 -0.11789281
-0.077965386 -0.08674576 -0.010043073 -0.09493485 0.22818846 -0.017417138 0.112126805 0.09968022
-0.05911001 0.005824011 -0.071744904 -0.052162383 -0.15792681 0.0019258136 -0.025529794 0.08092093
0.018703764 -0.18164897 0.023531567 -0.039311994 0.025789015 -0.044878997 -0.0007048156 -0.02138231
0.028933289 0.071884334 0.014862008 0.04008261 -0.13447982 -0.08598999 -0.026783071 -0.09465455
0.009203932 -0.034736615 0.045985065 -0.02706647 0.048264258 -0.0061791423 0.008199712 0.051401112
0.003867143 -0.06709247 -0.0041093817 0.003767843 -0.0815258 -0.05352917 0.011653009 0.068771735
0.088106275 0.040483087 -0.05100253 0.09627685 0.036073122 -0.072266825 -0.05189893 0.055970304
0.05987339 -0.0664605 -0.056694534 -0.016980307 -0.08559221 0.088083714 -0.09273901 -0.0336714
-0.026227182 -0.02497025 -0.0073793572 -0.04668151 0.09607085 -0.06809087 0.080847144 0.0415783
-0.02799356 -0.030079378 0.035029143 0.032578412 0.029012967 -0.05188774 -0.05414938 -0.06288977
-0.062136557 -0.082729205 0.040438283 -0.0305586 -0.025245124 -0.12952423 0.085195035 0.015191896
0.024142338 0.1071291 -0.018340502 -0.1014353 0.001984427 0.06661635 -0.0349462 0.13234736
00000000: f42b 0d3d 4c87 a83d 604f 73bb 36ce fdbc
00000010: 3146 c33d caba 7a3d 5b4a 44bd 386a 8abd
00000020: 36d5 1e3c cd3b 76bd 4a74 20be cfa9 2a3e
00000030: 690d 2abc 169f 1abd 8512 063b 1818 073d
00000040: 2c08 d93c 5a26 b9bc 5484 633d b431 933d
00000050: 71b9 c2ba 24cb 5abd 4179 8dbd 8a87 4b3d
00000060: aead bbba ba71 723b 88d0 2c3d d2c6 643d
00000070: 54f8 3abe 0196 0f3d 398d aabd 2958 14be
00000080: 87b0 d5bc 328d a93d 2c1e ccbd a621 1ebe
00000090: 11ac 833d 02ac a1bd 40f5 debc 956c 90bc
000000a0: c40f 733c 07d8 d33b b712 4cbd 7c12 16bd
000000b0: 60cb 563d e813 663b dbc2 3ebd d715 0fbc
000000c0: e317 9bbd 408b 03bd ff9c c0bd d7df 98bb
000000d0: a013 8bbd 752b ea3b 144e fabc 4d44 2a3d
000000e0: 68fd 9fbc 448a 103c a05e 05bb 1a79 7b3d
000000f0: 6364 0ebe 3d74 1dbc a12b 4bbd ea5e c13c
00000100: 3744 34bd 3c83 333e e3b4 10bb d02f 16bd
00000110: dbd0 c43d 571a 40bd de2d 36bd 6fbe 80bd
00000120: 55ff 39bc 7ad3 febc 5d22 d8bd 5934 07be
00000130: 99fd a2bd 1106 dfbc fb03 81bd f4f1 823a
00000140: 72c3 853d dd1d 7bbd 798d 9a3c 5336 b73d
00000150: 2832 93bd 9317 c0bc ca28 adbd 33b9 edbb
00000160: 9f9f d53d b5d6 aa3d cad4 9abc 1dc2 833b
00000170: 24db edbd 11d5 50bd a110 863b e7ce 1ebd
00000180: 4547 90bc 7a40 7a3d 9c4c 10be a307 5cbe
00000190: 7ed4 513e a8e7 af3c 55e2 deba 36e2 883c
000001a0: 10b8 89bd 6bdb 76bd 020f 173d baf7 353d
000001b0: 037f 073e b178 883d 44d0 82bd a148 103d
000001c0: 2a99 92ba 59db 21be 2b55 e9bd 6400 473e
000001d0: b6f7 6bbd e43b bfbd be63 243d 28a2 0dbd
000001e0: d554 cdbc 734d f93c 4128 7c3d 5bcd ea3c
000001f0: 70ef 29bd 4722 963d 8a77 54bd 79bd ccbd
00000200: 72bf 7fbd 2949 b8bb 8e20 abbd 06aa 7fbd
00000210: e112 e4bd 147c ecbc 327b 36be eef2 8fbd
00000220: f571 58be 278c 88bd 8131 35be 596d 12be
00000230: 32a5 5cbd a33d 52bc 7b68 b0bc cae4 e43c
00000240: 5128 113d 06e9 6cbc 9d9e f3bc 39f4 9abd
00000250: eec2 a6bc 32f5 053d bde0 95bd 0264 43bd
00000260: c529 f6bc 50a2 a63d c24a 7dbd 0f33 00bc
00000270: 0d82 79be e565 74bd da84 f93d c971 f1bd
00000280: 51ac 9fbd c3a7 b1bd b48b 24bc 346d c2bd
00000290: 3caa 693e 63ae 8ebc bda2 e53d 2525 cc3d
000002a0: 561d 72bd 58d7 be3b feee 92bd 39a8 55bd
000002b0: 91b7 21be 956b fc3a dc23 d1bc dfb9 a53d
000002c0: a338 993c 3002 3abe 46c5 c03c 9d05 21bd
000002d0: 7c43 d33c 0ad3 37bd 60c3 38ba f429 afbc
000002e0: 8105 ed3c 1838 933d c87f 733c aa2d 243d
000002f0: 14b5 09be 851b b0bd 2c68 dbbc 3fda c1bd
00000300: 17cc 163c fb47 0ebd d65a 3c3d 80ba ddbc
00000310: beb0 453d 677a cabb 1658 063c f989 523d
00000320: e56f 7d3b c767 89bd fea7 86bb eaed 763b
00000330: 00f7 a6bd 6741 5bbd 43ec 3e3c 32d8 8c3d
00000340: 1071 b43d 98d1 253d 07e8 50bd cc2c c53d
00000350: 69c1 133d a100 94bd f993 54bd 1e41 653d
00000360: cd3d 753d 711c 88bd 8738 68bd 491a 8bbc
00000370: f84a afbd 3c65 b43d f3ed bdbd 06eb 09bd
00000380: 63da d6bc 698e ccbc 89ce f1bb 1c35 3fbd
00000390: cbc0 c43d 3a73 8bbd 3093 a53d 024e 2a3d
000003a0: c052 e5bc 0769 f6bc b87a 0f3d f170 053d
000003b0: 9aac ed3c 3d88 54bd becb 5dbd 5acc 80bd
000003c0: e782 7ebd ee6d a9bd 9da2 253d 0756 fabc
000003d0: ddce cebc 00a2 04be bc7a ae3d 6ee7 783c
000003e0: 27c6 c53c 8066 db3d d23e 96bc 50bd cfbd
000003f0: 290d 023b 276e 883d bf23 0fbd 1186 073e

arith.constant5 f4 [64, 3, 3, 128]
-0.0125844525 0.03562128 -0.019200921 0.036857765 0.019199524 0.040516376 0.01299871 0.047954354
-0.06093256 0.010551799 0.01883728 0.034174617 -0.029077735 -0.05072365 -0.0016490548 0.010088908
-0.028712463 -0.01790937 0.036369372 0.0027051042 0.032622356 0.028189708 -0.069573276 -0.032803413
-0.064611 0.004984906 -0.014707789 -0.03048851 -0.04190955 0.0045056236 0.01668983 0.0205761
-0.0144281695 0.04039014 -0.022055134 0.027015112 0.0325514 0.048362948 0.046107423 -0.0026923532
0.028477563 -0.08962455 0.01900007 -0.0035285922 -0.05660835 0.010662044 -0.018719358 -0.023409285
-0.037355516 -0.037996728 -0.05437543 -0.05217302 -0.013757934 0.039168783 -0.033907343 -0.048561215
-0.051997595 0.04823386 0.029159587 0.03230312 -0.018469455 0.042352576 0.045443673 -0.05553732
0.042226605 0.035439197 0.04284055 0.045404367 -0.03468457 -0.03266385 -0.04699425 -0.0415032
-0.013022615 0.036108848 -0.05136797 0.011686927 -0.0040923147 -0.0151388375 -0.022101725 0.025830954
-0.009694983 0.0073616332 -0.030129 -0.027820256 -0.023249779 -0.04238517 0.009672105 0.009662471
0.03226429 -0.06008359 0.010109528 -0.0433482 0.04703568 0.020840604 0.041528676 -0.03810858
-0.06768933 -0.06592959 0.013083491 -0.00637295 0.029234057 -0.0030586482 0.03278165 0.039568093
0.032384116 0.014001313 -0.0018087494 -0.043279734 0.020578481 -0.06633446 -0.036350172 -0.021427084
-0.028987937 -0.069636054 -0.06121556 0.05849896 -0.055027112 0.04486548 0.024937028 -0.057678252
-0.017413704 -0.014239687 -0.0068977443 -0.045696054 -0.033212364 0.013056403 -0.06676825 0.005765849
0.018091764 0.045721654 0.010974078 0.004311539 -0.06669789 0.01576136 -0.044558804 -0.059297502
-0.0309758 -0.012707905 -0.023775714 -0.041922733 -0.005070224 -0.04512148 0.023001885 0.022918148
-0.016012205 0.00043464697 0.0357456 -0.0008110638 -0.019150332 0.021474008 0.02010557 -0.056039385
0.019141728 -0.027069395 -0.028379343 0.032933246 -0.0561338 0.02122892 -0.03943778 -0.04726473
-0.015999993 0.027424999 0.036233872 0.010869941 -0.022747455 -0.029300038 -0.02609625 -0.055521853
-0.029834606 -0.021800129 1.4563008e-05 -0.05402764 0.023867289 0.03338691 -0.006754472 -0.025287246
-0.065494955 -0.026205588 -0.0013247181 0.01075392 -0.014253558 0.011519096 0.02152018 -0.064993046
0.016946241 -0.0024552569 -0.04325634 -0.06399212 0.007412605 -0.016795948 -0.04786805 -0.014950064
-0.036701 -0.057756983 -0.025161577 -0.013403168 0.011249971 -0.04880098 -0.012902859 -0.059895102
0.04640706 -0.001901433 -0.0052614794 -0.06561626 -0.01217511 0.024583919 0.014647458 0.0051427246
-0.056503765 -0.035295077 0.016385924 0.035279565 0.023004044 -0.0008340088 -0.015681041 0.039171807
-0.016163966 0.024485964 -0.03010462 -0.021809872 0.035651036 0.005428959 0.021714162 -0.062251315
-0.012021312 0.04591449 0.03168942 0.013848817 -0.0074252677 -0.02296902 0.03127257 -0.042966325
-0.043718487 0.03943252 -0.024479326 0.023698244 -0.059049338 0.005621793 -0.025967548 0.018517831
0.0030859918 -0.029827105 0.033057075 0.04168838 -0.057458032 -0.04057605 -0.012514661 0.03261738
0.024921084 -0.05022296 -0.012987366 0.04185026 0.020656064 -0.0460138 0.035773937 -0.0062831696
00000000: 052f 4ebc 9fe7 113d 404b 9dbc 2bf8 163d
00000010: 5248 9d3c 80f4 253d 8bf8 543c c96b 443d
00000020: 6c94 79bd 74e1 2c3c a450 9a3c affa 0b3d
00000030: 6e34 eebc 9ac3 4fbd 1925 d8ba f24b 253c
00000040: 6636 ebbc acb6 92bc 0df8 143d 1e48 313b
00000050: 059f 053d 1aee e63c 6f7c 8ebd df5c 06bd
00000060: c652 84bd 6c58 a33b f0f8 70bc 0ac3 f9bc
00000070: 59a9 2bbd e9a3 933b 1cb9 883c 368f a83c
00000080: 2164 6cbc 2270 253d f8ac b4bc cc4e dd3c
00000090: 9e54 053d 3a18 463d 23db 3c3d 3172 30bb
000000a0: c749 e93c 138d b7bd 09a6 9b3c f43f 67bb
000000b0: 28de 67bd dbaf 2e3c 5759 99bc d4c4 bfbc
000000c0: 1902 19bd 75a2 1bbd c5b8 5ebd 60b3 55bd
000000d0: f568 61bc 726f 203d 6de2 0abd 20e8 46bd
000000e0: 6efb 54bd de90 453d 16e0 ee3c 4750 043d
000000f0: 414d 97bc e579 2d3d 2523 3a3d 1a7b 63bd
00000100: cef5 2c3d b128 113d 9379 2f3d eef9 393d
00000110: 6811 0ebd 87ca 05bd 0b7d 40bd 42ff 29bd
00000120: ce5c 55bc dfe6 133d 3867 52bd 867a 3f3c
00000130: d318 86bb e308 78bc ad0e b5bc 709b d33c
00000140: b5d7 1ebc db39 f13b 18d1 f6bc 4ee7 e3bc
00000150: 5276 bebc 129c 2dbd c077 1e3c 574f 1e3c
00000160: 8f27 043d 361a 76bd 6fa2 253c e28d 31bd
00000170: 7ca8 403d eab9 aa3c f919 2a3d be17 1cbd
00000180: b4a0 8abd 1806 87bd 235c 563c 2ed4 d0bb
00000190: 437c ef3c 9a73 48bb 0d46 063d 2712 223d
000001a0: 35a5 043d c365 653c 8f13 edba 1746 31bd
000001b0: 3494 a83c 5dda 87bd ebe3 14bd da87 afbc
000001c0: 1c78 edbc 599d 8ebd 2bbd 7abd 9b9c 6f3d
000001d0: 1c64 61bd dec4 373d bd48 cc3c 0840 6cbd
000001e0: 2fa7 8ebc 934d 69bc 7906 e2bb c92b 3bbd
000001f0: b009 08bd 86ea 553c cbbd 88bd 72ef bc3b
00000200: 2e35 943c a146 3b3d 9fcc 333c d047 8d3b
00000210: e798 88bd f81d 813c 4b83 36bd f0e1 72bd
00000220: f6c0 fdbc d134 50bc 49c5 c2bc 2cb7 2bbd
00000230: 1f24 a6bb 4dd1 38bd 736e bc3c d7be bb3c
00000240: 072c 83bc 54e1 e339 fa69 123d 929d 54ba
00000250: 28e1 9cbc 42ea af3c 70b4 a43c 8e89 65bd
00000260: 1dcf 9c3c a3c0 ddbc cc7b e8bc 03e5 063d
00000270: 8eec 65bd 46e8 ad3c 8289 21bd a998 41bd
00000280: 6b12 83bc 64aa e03c f869 143d d617 323c
00000290: df58 babc a206 f0bc cec7 d5bc e26a 63bd
000002a0: b467 f4bc 2f96 b2bc a553 7437 164c 5dbd
000002b0: 5585 c33c b6c0 083d 9e54 ddbb 3327 cfbc
000002c0: 3822 86bd 1aad d6bc 2aa2 adba 3631 303c
000002d0: c187 69bc 97ba 3c3c 174b b03c 131b 85bd
000002e0: d8d2 8a3c 60e8 20bb 8f2d 31bd 4d0e 83bd
000002f0: 70e5 f23b a897 89bc 4a11 44bd 1df1 74bc
00000300: ca53 16bd 9692 6cbd a71f cebc f698 5bbc
00000310: cc51 383c 89e3 47bd 8366 53bc 9154 75bd
00000320: 5415 3e3d 8139 f9ba 7d68 acbb d161 86bd
00000330: 1d7a 47bc 3764 c93c e4fb 6f3c 4d84 a83b
00000340: 7e70 67bd 9291 10bd c63b 863c 4e81 103d
00000350: fa72 bc3c 62a1 5aba 8775 80bc 9e72 203d
00000360: 4b6a 84bc ca96 c83c f79d f6bc 9eaa b2bc
00000370: d206 123d 69e5 b13b e6e1 b13c 3cfb 7ebd
00000380: 09f5 44bc d510 3c3d c4cc 013d 26e6 623c
00000390: a94f f3bb 8729 bcbc ab17 003d 75fd 2fbd
000003a0: 2812 33bd fe83 213d de88 c8bc d222 c23c
000003b0: b8dd 71bd 0537 b83b e5b9 d4bc b5b2 973c
000003c0: 5a3e 4a3b f957 f4bc db66 073d 6fc1 2a3d
000003d0: 1d59 6bbd 1233 26bd 4b0a 4dbc cd99 053d
000003e0: 4d27 cc3c 97b6 4dbd f6c8 54bc 2e6b 2b3d
000003f0: e836 a93c f778 3cbd b187 123d 0ce3 cdbb

arith.constant6 f4 [10, 64]
0.1425677 0.19803666 0.3072534 -0.16325532 -0.37914374 -0.16255414 -0.19967514 -0.15402155
-0.44354025 0.27794155 0.096617915 -0.3024897 -0.45125788 -0.02041216 0.18008322 -0.4860983
0.23167408 -0.039865598 0.1735464 -0.012998369 0.08324162 -0.22219576 -0.14907682 -0.27419582
0.21957481 0.08351775 -0.18121745 -0.1992229 0.31862763 -0.21153037 -0.10074353 -0.04069911
-0.16347504 0.16551055 0.15747157 -0.16674356 -0.10981956 -0.19307713 -0.43006778 0.09784912
0.24198294 -0.06945865 0.047784757 0.0433695 0.19171266 0.23668791 -0.018389089 -0.10578603
0.24111253 0.1281158 0.08923559 -0.23391832 -0.19577205 0.33281103 0.11302909 0.04106312
-0.20952298 -0.073410966 0.12814048 -0.16482735 -0.2937874 -0.021738997 -0.24923465 0.037219785
0.11851476 -0.53946334 -0.3682444 -0.21352614 -0.07580071 -0.2046449 -0.026971733 0.47367293
0.2620681 -0.37821096 -0.29607198 -0.5111883 -0.19235861 -0.025232462 0.33141685 -0.042573046
-0.20385091 0.2375143 -0.20103742 -0.35473204 -0.3075879 0.25654465 -0.62055004 -0.042050876
-0.17562415 -0.2674384 -0.5045323 -0.18341039 -0.16160533 0.042037606 0.0054850588 0.23789334
-0.07469524 0.2784982 -0.0143083 0.04645656 0.26724818 -0.07121069 -0.18400773 0.16241765
-0.332383 -0.19302581 -0.02652627 0.009199939 0.07781025 -0.31117228 0.22673155 -0.043238275
0.11976424 0.13671593 0.025289197 0.028995516 0.010225357 0.20078209 -0.14934969 -0.28185934
-0.33688235 0.29160658 -0.008684577 0.13483582 0.04360652 0.17181483 -0.24019524 0.36075595
-0.18057543 0.07599128 0.013174941 -0.16906804 -0.007570863 0.083353944 -0.34900513 0.1281137
-0.38792253 -0.15856878 0.028171085 -0.28165802 -0.2632553 -0.064876065 -0.19035536 0.35408795
-0.08776113 -0.09239262 0.09145864 -0.17385465 0.2747274 -0.26548815 0.016830122 -0.31365183
-0.3456436 -0.4995361 0.1572256 0.14741935 -0.09079286 -0.00056328246 0.25666854 -0.15614578
-0.026962012 -0.23154865 -0.24659155 -0.013807183 0.26468694 0.45793998 -0.15396012 -0.26382872
-0.26877615 0.25844324 -0.46871173 0.2908154 -0.24760783 0.040776286 -0.39412394 -0.24642994
0.025947724 0.28122798 -0.23712672 -0.20244527 -0.33913723 0.12342919 0.25162473 0.0566176
0.14629382 0.15086637 0.1634861 -0.0759853 -0.35375604 -0.2462972 -0.21419992 -0.30310136
-0.27040806 0.19035918 -0.20067394 0.20567612 -0.28042978 0.19755374 -0.19528703 -0.23872824
-0.27811545 -0.029296625 -0.39077523 -0.113468595 -0.15950207 0.07611855 -0.05953033 0.0392845
-0.2950392 0.1737722 -0.10548325 -0.08268937 -0.24135283 -0.003920378 -0.46254724 0.14493826
0.15884039 0.1528952 0.1255012 0.15494196 -0.20577526 0.06517488 -0.027812965 0.14921956
0.2877522 -0.49758518 0.04173567 0.21470033 -0.18021531 0.017549582 -0.27704602 -0.27237442
-0.15716067 -0.36300567 0.24563839 0.11984676 -0.08322312 0.31682947 0.0026480206 -0.3189107
0.16636764 0.17069657 0.15835442 0.23953272 0.08127384 0.2618912 0.13460986 -0.075989455
-0.29045108 0.067134604 0.06747402 -0.26419485 -0.118753605 -0.15562129 0.2663041 -0.0043285773
00000000: 44fd 113e 1fca 4a3e 5150 9d3e 672c 27be
00000010: 211f c2be 9874 26be a477 4cbe d3b7 1dbe
00000020: b517 e3be 5b4e 8e3e 9ddf c53d eedf 9abe
00000030: 460b e7be 6737 a7bc bc67 383e e0e1 f8be
00000040: f83b 6d3e 1c4a 23bd 26b6 313e 1cf7 54bc
00000050: 957a aa3d 4987 63be 98a7 18be 6563 8cbe
00000060: 38d8 603e 5b0b ab3d 1191 39be 1701 4cbe
00000070: 2923 a33e 6b9b 58be a052 cebd 1cb4 26bd
00000080: 0066 27be 997b 293e 3a40 213e d3be 2abe
00000090: 14e9 e0bd 03b6 45be d831 dcbe 1f65 c83d
000000a0: 60ca 773e 5640 8ebd f3b9 433d 38a4 313d
000000b0: 5350 443e 515e 723e b7a4 96bc 59a6 d8bd
000000c0: 34e6 763e ca30 033e 26c1 b63d 4988 6fbe
000000d0: 7878 48be 3566 aa3e cc7b e73d cd31 283d
000000e0: 318d 56be 7d58 96bd 4237 033e 80c8 28be
000000f0: 4d6b 96be fb15 b2bc 5e37 7fbe c673 183d
00000100: deb7 f23d 451a 0abf 888a bcbe 99a6 5abe
00000110: 673d 9bbd 6f8e 51be d3f3 dcbc 4285 f23e
00000120: ca2d 863e dea4 c1be bf96 97be 3ddd 02bf
00000130: a8f9 44be 4fb4 cebc 78af a93e 1361 2ebd
00000140: 4bbe 50be f336 733e c1dc 4dbe 709f b5be
00000150: 297c 9dbe d259 833e 5edc 1ebf 8a3d 2cbd
00000160: d1d6 33be b0ed 88be 0729 01bf efcf 3bbe
00000170: de7b 25be a02f 2c3d 02bc b33b 509a 733e
00000180: d1f9 98bd 5197 8e3e 5c6d 6abc 3c49 3e3d
00000190: c1d4 883e e9d6 91bd 866c 3cbe d050 263e
000001a0: 1b2e aabe 8fa8 45be 9f4d d9bc 57bb 163c
000001b0: fb5a 9f3d f951 9fbe 512c 683e 9e1a 31bd
000001c0: f446 f53d 43ff 0b3e 4a2b cf3c 0188 ed3c
000001d0: 4188 273c d299 4d3e 20ef 18be de4f 90be
000001e0: d87b acbe 754d 953e c249 0ebc 6712 0a3e
000001f0: c09c 323d 3af0 2f3e bef5 75be 01b5 b83e
00000200: c4e8 38be 51a1 9b3d b5db 573c 2c20 2dbe
00000210: 0015 f8bb 79b5 aa3d cdb0 b2be 3d30 033e
00000220: c89d c6be db5f 22be 0cc7 e63c 7b35 90be
00000230: 66c9 86be bedd 84bd 84ec 42be 044b b53e
00000240: 1bbc b3bd 5838 bdbd ab4e bb3d f406 32be
00000250: 12a9 8c3e 10ee 87be 53df 893c f996 a0be
00000260: 33f8 b0be 32c3 ffbe bfff 203e 19f5 163e
00000270: 9bf1 b9bd 3fa9 13ba 0f6a 833e aee4 1fbe
00000280: 70df dcbc 171b 6dbe 7f82 7cbe 8637 62bc
00000290: 0c85 873e 1c77 ea3e b9a7 1dbe 8f14 87be
000002a0: 079d 89be ac52 843e fcfa efbe c2e5 943e
000002b0: e88c 7dbe 0905 273d 9dca c9be 2158 7cbe
000002c0: 5290 d43c 1dfd 8f3e 59d1 72be d04d 4fbe
000002d0: 65a3 adbe 71c8 fc3d f5d4 803e dbe7 673d
000002e0: 0cce 153e b77c 1a3e e668 273e 2e9e 9bbd
000002f0: 831f b5be 5535 7cbe 3957 5bbe 1a30 9bbe
00000300: ed72 8abe 84ed 423e 787d 4dbe c39c 523e
00000310: 7e94 8fbe 874b 4a3e 53f9 47be 2d75 74be
00000320: 2665 8ebe 7aff efbc b113 c8be 3962 e8bd
00000330: 8354 23be 0be4 9b3d 13d6 73bd c9e8 203d
00000340: 610f 97be 57f1 313e 9a07 d8bd 0b59 a9bd
00000350: 3225 77be 8476 80bb fed2 ecbe b26a 143e
00000360: 0ea7 223e 8f90 1c3e 6383 003e 1ba9 1e3e
00000370: c0b6 52be 687a 853d 04d8 e3bc 03cd 183e
00000380: 4254 933e 7cc3 febe 06f3 2a3d 67da 5b3e
00000390: 5d8a 38be 24c4 8f3c fad8 8dbe a974 8bbe
000003a0: baee 20be e1db b9be a188 7b3e 3872 f53d
000003b0: e270 aabd 7937 a23e 6a8a 2d3b 4348 a3be
000003c0: 475c 2a3e 15cb 2e3e a927 223e 1148 753e
000003d0: e672 a63d 9a16 863e 2bd7 093e 5ca0 9bbd
000003e0: 01b6 94be de7d 893d d22f 8a3d 8c44 87be
000003f0: 1735 f3bd 305b 1fbe 0359 883e bdd6 8dbb

arith.constant7 f4 [64, 128]
0.1022235 -0.13893032 -0.026227597 -0.13397157 -0.09037352 -0.043104894 -0.27270913 0.057065073
-0.26523614 0.17490306 0.11668851 0.03905998 -0.097736165 -0.016945548 -0.01604704 -0.27642342
0.026176777 0.15099345 -0.272944 0.025260814 -0.20213354 0.17846128 -0.33800295 -0.012436195
0.04323161 0.14111158 -0.11116358 -0.08235375 -0.10713942 0.09372168 -0.19037652 0.041093394
0.18411516 0.011944107 0.020072855 -0.016519293 -0.1153347 -0.109892674 0.11640243 -0.3213479
-0.07598718 0.21432352 0.053828705 0.07219245 -0.063385166 0.24144605 0.008289334 -0.011083662
0.07832095 0.058945432 -0.014534668 0.017088663 0.038952366 0.094678886 -0.27338982 -0.072151184
0.21190491 0.25448316 0.23881598 -0.17997393 -0.090261444 0.006108489 -0.14205988 -0.052820217
-0.061952345 -0.088878274 0.10197595 -0.006875965 -0.1043473 -0.024960594 0.06266382 0.10941443
-0.11703699 -0.13229348 0.1353575 0.044986818 0.061526943 0.1230012 0.17942555 -0.0430683
0.31409532 0.07914044 0.14554761 0.24598318 -0.17248964 -0.16705094 0.087960504 -0.15983441
-0.28972006 -0.030929526 -0.25669834 0.023121739 -0.14662372 -0.26005623 -0.18341763 -0.00034727412
-0.11314873 0.0661591 0.17678888 -0.030895807 0.118189484 -0.19095616 0.018502584 -0.19048305
0.027530266 0.026200404 0.13514097 0.10332933 -0.06855972 0.09128974 0.024421658 0.31756043
0.11874489 0.14855996 0.12782434 0.015064552 0.09390444 0.1477706 0.17958319 -0.17116146
0.13052958 -0.10153475 0.03532482 0.09169805 -0.14301802 0.14911227 0.026025854 -0.094737336
0.035124984 0.030352723 0.0714713 -0.25705063 -0.0017401661 0.04212329 0.17166977 -0.037459966
-0.013119336 -0.024815334 0.008224013 -0.012821898 -0.35920334 -0.05574219 0.13682626 0.02360619
0.09113815 0.0127252685 0.023710914 -0.0648847 -0.001632452 -0.012950658 -0.07778223 0.13272478
0.005192239 0.045549206 -0.071030565 -0.13860665 0.061483517 0.020014469 0.22061154 0.07705914
-0.22032191 0.033562623 0.20411354 -0.17834271 -0.13552044 -0.20876548 0.03809035 -0.28232616
0.08432276 0.22383328 0.13050847 -0.20514368 0.10589332 0.12776765 -0.114915855 -0.057739362
0.004882166 0.28364858 0.12138919 0.15040688 0.2847386 0.14632124 0.09368907 0.16821352
0.15368599 -0.03317123 -0.16493805 -0.05425146 -0.07103439 0.22014111 0.10645454 -0.12523602
0.12669069 -0.09864313 0.07060588 -0.3015741 -0.067385904 -0.23987113 0.19930997 0.033809345
-0.061114043 -0.048511818 0.06887605 -0.19936432 0.17767264 0.15415426 0.028974062 0.20495541
0.461675 0.19433127 -0.10820313 0.17629537 -0.032707497 -0.13711406 0.058818657 0.08425505
0.118974574 -0.06597127 0.197869 -0.0767718 -0.09214049 0.25800252 -0.023190498 -0.06563423
-0.021876963 0.10466805 0.10837445 -0.026285747 -0.1557841 -0.04835863 -0.10295839 -0.17821002
-0.22939546 0.017168732 0.07144245 -0.0613267 0.041849658 -0.08485773 0.007150703 0.12625709
-0.1087292 0.02980128 0.09353213 -0.14606382 0.0681671 -0.3401043 -0.09097198 -0.17022754
0.0308356 0.032409254 -0.0061434438 0.023721201 0.14344318 0.13057002 0.01666179 0.01622505
00000000: 8e5a d13d c043 0ebe 42db d6bc d82f 09be
00000010: c115 b9bd c28e 30bd 88a0 8bbe 11bd 693d
00000020: 08cd 87be ca19 333e 63fa ee3d 5cfd 1f3d
00000030: e629 c8bd 64d1 8abc 1575 83bc 5f87 8dbe
00000040: ae70 d63c 079e 1a3e 51bf 8bbe c4ef ce3c
00000050: 18fc 4ebe 8ebe 363e b90e adbe 2fc1 4bbc
00000060: a113 313d 8e7f 103e bba9 e3bd 15a9 a8bd
00000070: ea6b dbbd 27f1 bf3d 10f2 42be 8c51 283d
00000080: af88 3c3e 37b1 433c d46f a43c 7853 87bc
00000090: 9934 ecbd 690f e1bd 6664 ee3d b687 a4be
000000a0: 2b9f 9bbd a077 5b3e 7d7b 5c3d a3d9 933d
000000b0: 15d0 81bd a23d 773e fdcf 073c 3f98 35bc
000000c0: bc66 a03d c470 713d d122 6ebc 86fd 8b3c
000000d0: 848c 1f3d 01e7 c13d c0f9 8bbe 00c4 93bd
000000e0: 9afd 583e 9e4b 823e 2d8c 743e 164b 38be
000000f0: feda b8bd b829 c83b 2578 11be 035a 58bd
00000100: bec1 7dbd d005 b6bd c4d8 d03d c64f e1bb
00000110: 0ab4 d5bd 297a ccbc e455 803d ac14 e03d
00000120: 17b1 efbd f177 07be 289b 0a3e 1944 383d
00000130: ad03 7c3d 0ee8 fb3d 55bb 373e 6368 30bd
00000140: 1ad1 a03e 6214 a23d 6f0a 153e 04e3 7b3e
00000150: 20a1 30be 670f 2bbe a324 b43d a2ab 23be
00000160: 3056 94be eb5f fdbc f76d 83be cd69 bd3c
00000170: 8724 16be 1726 85be d5d1 3bbe 5812 b6b9
00000180: 85ba e7bd 6c7e 873d 2508 353e 3419 fdbc
00000190: 540d f23d 038a 43be bb92 973c fd0d 43be
000001a0: 2787 e13c 3ba2 d63c 6562 0a3e 549e d33d
000001b0: 0a69 8cbd 1df6 ba3d ee0f c83c 4897 a23e
000001c0: 8530 f33d 1a20 183e 62e4 023e 50d1 763c
000001d0: f950 c03d 2d51 173e a8e4 373e f344 2fbe
000001e0: 8ca9 053e 73f1 cfbd c2b0 103d 30cc bb3d
000001f0: 5173 12be e3b0 183e 2c34 d53c a605 c2bd
00000200: 37df 0f3d 46a6 f83c 8c5f 923d 249c 83be
00000210: 4916 e4ba 7989 2c3d 33ca 2f3e 9f6f 19bd
00000220: 7cf2 56bc 8749 cbbc 03be 063c f012 52bc
00000230: 80e9 b7be ec51 64bd 2f1c 0c3e c561 c13c
00000240: a3a6 ba3d a57d 503c 643d c23c 45e2 84bd
00000250: 00f8 d5ba ff2e 54bc 4a4c 9fbd 01e9 073e
00000260: a823 aa3b ce91 3a3d 7978 91bd e7ee 0dbe
00000270: 24d6 7b3d 62f5 a33c fee7 613e 2fd1 9d3d
00000280: 119c 61be f678 093d 2403 513e 799f 36be
00000290: dfc5 0abe 9ec6 55be a004 1c3d 0e8d 90be
000002a0: 69b1 ac3d 8d34 653e 03a4 053e 2f11 52be
000002b0: 99de d83d 86d5 023e 0159 ebbd 1c80 6cbd
000002c0: 94fa 9f3b 633a 913e e59a f83d 4304 1a3e
000002d0: 42c9 913e 3cd5 153e 0ee0 bf3d 2a40 2c3e
000002e0: dc5f 1d3e 8ede 07bd 85e5 28be c736 5ebd
000002f0: 7a7a 91bd ac6c 613e d604 da3d df3d 00be
00000300: 34bb 013e 6905 cabd d199 903d ec67 9abe
00000310: 9f01 8abd c7a0 75be ea17 4c3e ab7b 0a3d
00000320: b852 7abd 54b4 46bd e30e 8d3d 2926 4cbe
00000330: d1ef 353e 9dda 1d3e 035b ed3c d5df 513e
00000340: aa60 ec3e c7fe 463e 9a99 ddbd c686 343e
00000350: 4cf8 05bd a167 0cbe d5eb 703d e98d ac3d
00000360: f1a8 f33d f21b 87bd 2c9e 4a3e 893a 9dbd
00000370: 27b4 bcbd e818 843e 00fa bdbc 3d6b 86bd
00000380: 5137 b3bc 345c d63d 6cf3 dd3d 3555 d7bc
00000390: de85 1fbe b313 46bd d9db d2bd b07c 36be
000003a0: a5e6 6abe 71a5 8c3c 6b50 923d b531 7bbd
000003b0: 8c6a 2b3d e4c9 adbd 7250 ea3b 8a49 013e
000003c0: 6aad debd d021 f43c c68d bf3d c191 15be
000003d0: 319b 8b3d 2722 aebe 844f babd 2150 2ebe
000003e0: f19a fc3c 91bf 043d f14e c9bb f752 c23c
000003f0: c5e2 123e 26b4 053e 4e7e 883c 65ea 843c

arith.constant8 f4 [128, 144]
-0.16916037 0.16246155 0.17955202 0.05056171 -0.069875844 0.2437665 0.10840721 -0.13823481
-0.04387472 0.025472151 -0.08249953 0.03498602 -0.08626693 -0.1110112 -0.058513027 0.11557303
0.11931869 0.06861128 -0.19336282 -0.02909826 0.08607335 -0.120317884 -0.051619023 0.078566566
0.15365162 0.017012829 -0.091348104 0.11146474 0.3138241 -0.05195207 -0.19536933 -0.12723081
0.054458417 -0.09702997 -0.25923193 -0.0021034302 0.095208004 0.16049902 -0.19491713 0.23046449
-0.17541005 -0.21644525 0.09720796 -0.062046107 0.06617633 -0.010160982 -0.09244948 -0.115477555
0.018563105 -0.25177878 0.044218905 -0.025508614 -0.054817267 -0.2628087 0.089352205 0.012265838
0.0828224 -0.082388766 -0.045194067 -0.14966159 -0.0993787 0.011512715 0.01610851 -0.108286336
-0.10675565 0.092407055 -0.1292577 0.09958607 0.03974962 -0.032351904 0.12072043 0.14921105
0.122931175 0.06380851 0.027684566 0.19536038 -0.18693775 0.1270218 0.10170051 -0.08512812
-0.20795494 -0.044027966 -0.2110493 -0.17610681 -0.08167936 -0.16060933 -0.3086629 0.0034967843
-0.119391985 0.014925278 0.18614857 -0.22942744 0.14779836 -0.13225037 -0.057664715 -0.07852
-0.010858672 -0.18488356 -0.05040676 -0.061921064 -0.028680678 -0.18597524 0.29141635 -0.11381386
-0.061442878 -0.16871908 -0.097781815 0.044655126 -0.4104553 0.04727291 -0.083040684 -0.10288078
0.257619 -0.2930887 0.026781382 0.11777896 -0.10451975 -0.47838834 0.08030929 0.062616654
-0.065604374 0.18199757 0.036833994 0.097545475 -0.36388853 -0.02619423 0.012799783 0.110415116
-0.22738034 0.097413294 0.12114269 0.1347617 0.06279288 0.16625263 0.10227212 -0.09733157
0.051762875 0.027003191 0.07110632 -0.047311284 -0.35258052 -0.11382201 0.0578217 0.13756202
0.03332923 -0.1935279 0.012989186 0.079865776 -0.017603785 0.19599186 -0.12772514 -0.13140121
0.0084261205 0.0468457 -0.23831408 -0.13615258 0.20374213 -0.15687017 -0.05630853 0.013324859
0.14706016 -0.20935467 0.03127678 0.14624867 0.09238813 -0.012404778 -0.14912544 -0.04173731
-0.11131411 -0.00851456 -0.21458611 -0.055710707 -0.13024631 0.02690462 -0.009799675 0.07833537
0.08692394 -0.21991865 -0.14856519 -0.21625102 0.13866328 -0.21547867 -0.028813608 0.033498902
0.021317028 -0.25714603 -0.08327943 0.037313774 -0.11816891 -0.03776706 -0.13165082 -0.014632616
0.12989211 -0.12694043 0.11570897 0.0017299063 -0.12250439 0.04329708 -0.03657978 -0.19925477
-0.123742886 0.09823101 -0.009968846 -0.007198058 -0.029797873 0.064555734 -0.15517834 0.074651994
-0.013833093 0.029697608 -0.17366858 -0.08516193 -0.050429985 -0.21058005 -0.19013529 -0.097238034
-0.12376134 -0.1414686 0.16616572 0.075322025 -0.12341266 -0.2997563 -0.17430727 -0.08037311
-0.029295998 0.0756454 0.14697368 -0.006054488 0.1407945 -0.0581953 -0.22113624 0.059727587
0.0912874 -0.17249024 -0.04107856 -0.15315528 -0.12461052 0.10477856 -0.11992534 -0.026141366
0.027570188 0.17494655 0.07977152 -0.153779 0.09699915 0.1980909 0.04418379 0.15877014
0.001936298 0.09186366 0.304399 0.082822755 -0.1141932 -0.010154001 -0.0456796 0.048814934
00000000: 6038 2dbe 525c 263e 7cdc 373e cc19 4f3d
00000010: 111b 8fbd ed9d 793e 9904 de3d 6d8d 0dbe
00000020: fab5 33bd f9aa d03c 83f5 a8bd 804d 0f3d
00000030: b7ac b0bd d759 e3bd 5bab 6fbd 8eb1 ec3d
00000040: 5b5d f43d 1284 8c3d e700 46be 795f eebc
00000050: 3947 b03d 3969 f6bd 786e 53bd 82e7 a03d
00000060: da56 1d3e 7d5e 8b3c b714 bbbd a047 e43d
00000070: 8dad a03e b2cb 54bd e60e 48be cb48 02be
00000080: ca0f 5f3d a6b7 c6bd 0cba 84be b4d9 09bb
00000090: 6afc c23d db59 243e 5b98 47be e2fe 6b3e
000000a0: b19e 33be d3a3 5dbe f814 c73d 0f24 7ebd
000000b0: 7587 873d 3f7a 26bc 2756 bdbd 7f7f ecbd
000000c0: a711 983c 26e9 80be e21e 353d 71f7 d0bc
000000d0: 1288 60bd dd8e 86be 4afe b63d a7f6 483c
000000e0: ca9e a93d 71bb a8bd 6a1d 39bd e340 19be
000000f0: 0f87 cbbd d49f 3c3c fef5 833c 3ac5 ddbd
00000100: b5a2 dabd e93f bd3d 215c 04be c8f3 cb3d
00000110: 7fd0 223d 6e83 04bd 463c f73d c8ca 183e
00000120: 57c3 fb3d 09ae 823d beca e23c 8d0c 483e
00000130: 9c6c 3fbe 0112 023e 5b48 d03d a757 aebd
00000140: 24f2 54be ab56 34bd 4f1d 58be 5855 34be
00000150: 8247 a7bd c676 24be 1009 9ebe 4e2a 653b
00000160: c983 f4bd 2789 743c bb9d 3e3e 07ef 6abe
00000170: 7458 173e a46c 07be d631 6cbd 18cf a0bd
00000180: 92e8 31bc 1e52 3dbe 5277 4ebd f1a0 7dbd
00000190: bef3 eabc 4b70 3ebe 8634 953e 3e17 e9bd
000001a0: 87ab 7bbd b2c4 2cbe d541 c8bd 4be8 363d
000001b0: 3227 d2be 3da1 413d 3c11 aabd 29b3 d2bd
000001c0: a3e6 833e b90f 96be a164 db3c 1836 f13d
000001d0: 730e d6bd 51ef f4be 3279 a43d 293d 803d
000001e0: 965b 86bd 925d 3a3e 3edf 163d ecc5 c73d
000001f0: 994f babe 4895 d6bc 2eb6 513c 5221 e23d
00000200: 64d6 68be 9f80 c73d a919 f83d f9fe 093e
00000210: 8e99 803d 213e 2a3e 0c74 d13d c655 c7bd
00000220: 4f05 543d cc35 dd3c 31a0 913d 7ac9 41bd
00000230: 6f85 b4be 841b e9bd 72d6 6c3d 0fdd 0c3e
00000240: 3b84 083d 2e2c 46be 98d0 543c ab90 a33d
00000250: d035 90bc 17b2 483e 61ca 02be 0a8e 06be
00000260: b60d 0a3c 47e1 3f3d 9b08 74be 956b 0bbe
00000270: c7a1 503e 93a2 20be c6a3 66bd 8250 5a3c
00000280: f096 163e 1261 56be 151c 003d 36c2 153e
00000290: fd35 bd3d 693d 4bbc 57b4 18be bef4 2abd
000002a0: a7f8 e3bd a780 0bbc 76bc 5bbe e930 64bd
000002b0: 4a5f 05be 1467 dc3c d18e 20bc 4b6e a03d
000002c0: 2e05 b23d 5b32 61be 7921 18be e870 5dbe
000002d0: bffd 0d3e 71a6 5cbe 840a ecbc 2536 093d
000002e0: 0ca1 ae3c a5a8 83be 688e aabd 54d6 183d
000002f0: 8b02 f2bd a2b1 1abd 79cf 06be a4bd 6fbc
00000300: 7002 053e acfc 01be d3f8 ec3d 06be e23a
00000310: 95e3 fabd 4758 313d aed4 15bd 7109 4cbe
00000320: e96c fdbd 572d c93d 5f54 23bc b0dd ebbb
00000330: ab1a f4bc cc35 843d 12e7 1ebe 25e3 983d
00000340: 33a4 62bc 6648 f33c 2dd6 31be 6169 aebd
00000350: ac8f 4ebd 4ca2 57be d3b2 42be bc24 c7bd
00000360: 9676 fdbd 25dd 10be 5927 2a3e 6f42 9a3d
00000370: c7bf fcbd a879 99be 9b7d 32be a89a a4bd
00000380: 29fe efbc faeb 9a3d 4580 163e ba64 c6bb
00000390: 6f2c 103e 325e 6ebd 8a71 62be eaa4 743d
000003a0: e3f4 ba3d 48a1 30be fe41 28bd bdd4 1cbe
000003b0: cd33 ffbd 2496 d63d 6b9b f5bd 6b26 d6bc
000003c0: e0da e13c 3025 333e 405f a33d 3e78 1dbe
000003d0: 7ea7 c63d 57d8 4a3e 10fa 343d a494 223e
000003e0: 61cb fd3a 0423 bc3d 30da 9b3e fa9e a93d
000003f0: 20de e9bd f85c 26bc 881a 3bbd 2bf2 473d

arith.constant9 f4 [10]
-0.008523237 -0.02792826 -0.05467376 0.04196864 0.069990724 -0.3858073 0.00202632 0.04397491
0.04985014 0.20960312
00000000: 0ca5 0bbc cec9 e4bc 98f1 5fbd 4fe7 2b3d
00000010: 4c57 8f3d 8988 c5be 02cc 043b 091f 343d
00000020: a92f 4c3d 33a2 563e

arith.constant10 f4 [64]
-0.06734821 -0.16187397 0.01853108 -0.016574513 0.0130623365 0.11927269 -0.10908166 0.0006388293
0.083261214 0.07351309 -0.037849512 0.122145616 0.11540143 0.07411067 0.14233503 0.008409491
-0.16467823 -0.07927111 0.11495864 -0.04913341 -0.2185486 0.20836896 -0.038818005 0.09362325
0.038290862 0.065996125 -0.18447761 -0.06302261 0.023576906 -0.013026891 -0.15090539 -0.043753363
0.041895516 0.13824229 -0.09691871 -0.15125643 -0.0971464 -0.13292043 -0.032610875 -0.013741089
0.006774593 -0.062167883 0.06603668 -0.14404087 0.19257657 -0.05528951 0.04295271 0.046131678
-0.0064055375 -0.021909278 -0.07158271 -0.0502496 0.22471902 0.10232449 0.11924995 -0.17361306
0.05558657 -0.07156715 -0.023940695 0.14961448 0.011214048 0.014338258 0.1688934 -0.17424208
00000000: dced 89bd 4ac2 25be 7ece 973c 46c7 87bc
00000010: 6903 563c 3d45 f43d 3566 dfbd 1c77 273a
00000020: db84 aa3d 088e 963d 1708 1bbd 7b27 fa3d
00000030: 9657 ec3d 56c7 973d 46c0 113e f6c7 093c
00000040: 69a1 28be e458 a2bd 6f6f eb3d 1d40 49bd
00000050: 34cb 5fbe ac5e 553e a1ff 1ebd 8cbd bf3d
00000060: e1d6 1c3d fa28 873d b3e7 3cbe 0012 81bd
00000070: 5b24 c13c be6e 55bc f186 1abe ba36 33bd
00000080: a29a 2b3d 638f 0d3e 517d c6bd f7e2 1abe
00000090: b1f4 c6bd 4b1c 08be fb92 05bd 4e22 61bc
000000a0: 68fd dd3b c0a3 7ebd 3d3e 873d 737f 13be
000000b0: cb32 453e 4177 62bd 2eef 2f3d 92f4 3c3d
000000c0: 8be5 d1bb 167b b3bc f599 92bd 86d2 4dbd
000000d0: be1c 663e 818f d13d 5139 f43d 9fc7 31be
000000e0: beae 633d cc91 92bd 471f c4bc 8a34 193e
000000f0: 20bb 373c 03eb 6a3c 64f2 2c3e 846c 32be

arith.constant11 f4 [128]
-0.07199543 0.0052683023 -0.02671762 0.0033810583 -0.053629845 -0.06516511 0.05065936 0.11821805
0.02115804 -0.109875195 -0.030596789 -0.065572515 0.07503282 0.015330921 -0.07624953 0.075640246
-0.067458175 0.13773473 -0.10810327 -0.013708974 -0.15743975 -0.02415728 0.042227887 -0.08472757
-0.04079018 -0.08267957 0.06963281 0.19721664 -0.1038643 -0.013063284 0.07279898 -0.06809906
0.070545666 -0.13429457 -0.08777954 -0.053618293 -0.038453367 0.015501514 -0.001597204 0.1370133
-0.16586003 -0.043050766 -0.024563005 0.04249006 -0.067315124 0.048320893 0.12695268 0.1421211
-0.11249212 -0.2061026 0.11662748 0.07685546 -0.012173189 -0.02141596 0.11046659 0.015951999
-0.015503663 0.051586874 -0.015570319 -0.021267978 0.08302057 -0.09185339 -0.1074965 0.10687664
-0.11294617 -0.027902734 -0.06025834 -0.028398091 -0.15649658 0.0253174 -0.1897339 -0.08718384
-0.028870411 -0.0419833 0.12529862 0.021057604 -0.003742503 -0.0059859096 -0.06772529 -0.028860223
0.028640654 -0.09105718 -0.036639597 0.04879614 -0.19239774 -0.043969963 -0.01994517 -0.008469307
0.04538276 -0.110404566 -0.026642773 -0.005697281 0.17321566 -0.0029512097 -0.014651463 -0.03814342
0.08063365 -0.11767318 -0.037947457 0.02915325 -0.029580802 -0.1345093 -0.05112092 0.1509369
0.0018644492 0.053823713 -0.021820515 -0.022935722 0.029708328 -0.018837454 0.056818962 0.004920771
0.041447967 -0.16844377 0.037544496 -0.059577256 -0.12653099 0.18854532 -0.18499601 0.11658164
-0.04781718 -0.1730289 0.107027724 -0.015356031 -0.02368501 -0.06023314 -0.057283863 0.0011503843
00000000: 5772 93bd b9a1 ac3b e9de dabc bf94 5d3b
00000010: f8aa 5bbd 4975 85bd 3080 4f3d 4e1c f23d
00000020: a053 ad3c 3f06 e1bd 1ea6 fabc e24a 86bd
00000030: cfaa 993d 8b2e 7b3c b728 9cbd 46e9 9a3d
00000040: 8327 8abd 550a 0d3e 3f65 ddbd 9b9b 60bc
00000050: e337 21be 7de5 c5bc 26f7 2c3d a685 adbd
00000060: 9b13 27bd e853 a9bd a69b 8e3d 29f3 493e
00000070: ceb6 d4bd 6207 56bc a217 953d 8577 8bbd
00000080: 3f7a 903d 8484 09be c2c5 b3bd db9e 5bbd
00000090: 4781 1dbd 10fa 7d3c 4659 d1ba 374d 0c3e
000000a0: 36d7 29be 0056 30bd 5b38 c9bc 0f0a 2e3d
000000b0: 83dc 89bd 21ec 453d e2ff 013e 3288 113e
000000c0: 4562 e6bd 8f0c 53be 63da ee3d 6566 9d3d
000000d0: 0e72 47bc 8670 afbc 4f3c e23d c4ad 823c
000000e0: 1303 7ebc c24c 533d a71a 7fbc 2f3a aebc
000000f0: b006 aa3d a11d bcbd 2027 dcbd 24e2 da3d
00000100: 5250 e7bd 4694 e4bc 73d1 76bd 1da3 e8bc
00000110: a440 20be 7066 cf3c 9a49 42be 718d b2bd
00000120: a481 ecbc aef6 2bbd 484e 003e ff80 ac3c
00000130: c844 75bb 7325 c4bb 8fb3 8abd 466c ecbc
00000140: ce9f ea3c 307c babd 6713 16bd 76de 473d
00000150: ea03 45be d919 34bd 0e64 a3bc d9c2 0abc
00000160: 46e3 393d ca1b e2bd f241 dabc 42b0 babb
00000170: 725f 313e 1569 41bb b10c 70bc 463c 1cbd
00000180: 4123 a53d a3fe f0bd cb6e 1bbd ccd2 ee3c
00000190: 7053 f2bc cebc 09be 2b64 51bd 348f 1a3e
000001a0: 8960 f43a 4176 5c3d f0c0 b2bc b2e3 bbbc
000001b0: e15e f33c 0151 9abc 00bb 683d 6b3e a13b
000001c0: 58c5 293d 867c 2cbe 42c8 193d 4807 74bd
000001d0: 5791 01be 0612 413e 986f 3dbe 5bc2 ee3d
000001e0: f3db 43bd 7d2e 31be 5a31 db3d dd97 7bbc
000001f0: 1107 c2bc 06b7 76bd 7ca2 6abd 7ec8 963a
